mnist_model.pth (torch, 439383 bytes, 6 tensors)

fc1.weight f4 [128, 784]
00000000: c8ca 643d 4a63 463d 8a0e db3c d161 ca3b
00000010: 945c 9b3d b0ed 033d 5564 9d3d 3ca3 eb3c
00000020: f971 893c f43d 8c3d d46c e63b d747 ed3c
00000030: 8892 773d d730 713d b765 8e3d 3531 833d
00000040: 9f20 823d 6013 fb3c 44b0 373d 9e3a 573c
00000050: 2e04 0a3d cb28 473d 2540 6e3d b8cf e53c
00000060: 665d e73c 178c 833d 1858 073d eaa1 c63c
00000070: 50e0 8c3c 7568 443d a2b8 d73c 6bb7 8c3d
00000080: 20d4 b63c 972a 7f3d c6b6 953c a38f f53c
00000090: ffee 1d3d df15 633d dfc5 be3c 4f19 1d3d
000000a0: 9c17 d93c ffde 973d 36e6 503d 207e 743d
000000b0: 1c85 133d 9196 9a3d 61f0 8e3d b41f c13c
000000c0: 22b7 773d 51e7 873d e9e4 a53c 4f1a 983d
000000d0: 1b66 833d 5423 073d a961 593d 2304 243d
000000e0: 4ca5 983c 5c52 f33b 953a 153d b311 2d3d
000000f0: 1a77 013d bbfb 3f3c 23a2 753d eb93 893d
00000100: a612 9a3d 5e68 763d 723a f93b 74da bfbc
00000110: 795c f53b ce0d 033d dd94 de3c fbeb 723c
00000120: 48f5 90b9 69c0 77bc 08f1 543b f8b0 8dbc
00000130: ece0 0f3d 77a2 153d 3b9a aa3c 50d0 0d3d
00000140: 4cee 9f3d 3a22 893d 9084 6d3d 30b4 973d
00000150: 6b9f 1a3d ecc9 da3c f24e 2c3d 5fa0 733d
00000160: 9989 443d 10df 4e3a 056a c0bc 9762 a13a
00000170: 30f2 bebd 9c82 703c 16d5 983d 39d3 473d
00000180: c752 163d a33f 74bb 110a 2d3c 4edc 063e
00000190: 9a6b ad3d 5ada 0a3e 864a 073d f4f8 cdbd
000001a0: 202b cabd 3153 90bd c59d ba3d 6213 e1bb
000001b0: a5da 5e3d b357 943d d43f 513d 058d 803d
000001c0: 1be9 1a3d e43a 9b3c fdee 0a3e 8681 a53d
000001d0: c434 c53c 1dae 87bc be1e 47bd c353 febc
000001e0: 4d38 84bd 22c7 a5bc f7f0 343d 867f e03c
000001f0: 8415 403d fc27 e83b bd9e 9b3d fb6b 4e3d
00000200: 625f d63d 8eef 453e 1239 5f3d 07bf 8b3d
00000210: dc3b 9e3d 60b1 33bd fc14 543d 71b1 72bc
00000220: f559 44bd 3d73 0fbb 6d92 743c 7f33 8839
00000230: ae09 c93c ae0b 933d 33bb 323d a0a3 5f3d
00000240: c90b 823d d900 13bc 8616 46bd 065b 5cbd
00000250: 7d21 97bd 4756 bf3c 19ed 90bb a197 a33d
00000260: e6e9 40bb 2336 3cbe f725 f0bd 4c4c fc3c
00000270: 9f13 293d 50f5 17bd 8607 93bd 9cf8 0d3d
00000280: 8eb1 a5b9 1000 983d 72a0 b03d 31a1 0d3e
00000290: 45b5 c43c 467e adbd 6adc 7a3b 871e 2d3c
000002a0: d03c 603d 176e 343c e59c 713c ee5e bf3b
000002b0: 2084 993c 3a4a 1dbd f10a 14be 46f2 16be
000002c0: b07c 02be cba1 7e3d 7b67 833d 9e39 c03c
000002d0: 6213 a7bc 1d55 27bd 38a0 073e 58da 553d
000002e0: 0441 b13d 5a3a 663d e76d 813c 7c27 c13c
000002f0: aa54 cc3d e836 16bc 6b50 113e 8ecf b33d
00000300: 395b f2bc 9a66 70bd 8991 393d 69cd d53c
00000310: 496c dc3c 730a d93c 931a cd3b 39e5 3eba
00000320: 9e21 28bd d808 0bbe e283 9fbe 91f0 18be
00000330: 62f9 753d 8f9c b13d 17b1 853b 4725 ce3a
00000340: 6d10 093b 7206 be3d c24a b73d 5d0a 283d
00000350: 9488 613e 7e16 bf3d 13de 3fba 3aad ee3d
00000360: b07d 273e 47f4 053e 3624 393e 576d da3d
00000370: 497b 19be a84e d6bd 3cac 633c a86e 993c
00000380: 0efc 783d 0857 8f3d 76b1 8a3d 6628 adbb
00000390: 76e7 953a 81c1 d7bd 9cf8 10be c761 cd3d
000003a0: 1031 f03d c708 1e3e 3331 743d ed71 8d3d
000003b0: 0d92 a5bc f0c2 27be 45f1 a53d dac9 0a3e
000003c0: a25c 023e 896f 753e 6efc d53c 7e29 e43d
000003d0: fd3e 093e a1d9 9a3d 106a 683e 87a2 9a3d
000003e0: 9fb9 3cbe 417d b7bd 9c48 733d 22d5 273c
000003f0: 8ff9 5d3d db7c db3b ffe2 b33c c781 933b
0.05585745 0.048434533 0.026740331 0.0061762114 0.07586017 0.0322091 0.076851524 0.02876436
0.01677798 0.06847754 0.0070320163 0.02896492 0.060442477 0.058884468 0.06952994 0.0640587
0.06353878 0.030648887 0.044845834 0.013136534 0.033695392 0.048622888 0.05816664 0.02805315
0.028242778 0.064232044 0.033042997 0.024247129 0.017196804 0.04795118 0.026333157 0.06870922
0.022317946 0.062296476 0.01827563 0.029975718 0.038558003 0.05544078 0.023287712 0.038354214
0.026500516 0.0741558 0.051000796 0.059690595 0.036015615 0.075482495 0.069794424 0.023574688
0.060477383 0.06635917 0.020250754 0.07426893 0.064159594 0.032992676 0.05307165 0.040043008
0.018633507 0.0074255895 0.03643282 0.042253207 0.031607725 0.011717732 0.05996908 0.06717666
0.07523088 0.060158126 0.007605844 -0.023419596 0.0074878302 0.031995587 0.027170593 0.01482677
-0.0002764857 -0.015121558 0.0032492299 -0.0172963 0.03512661 0.03653189 0.020825496 0.03462249
0.078091234 0.06695981 0.05798775 0.07407415 0.03774969 0.026707612 0.042067476 0.059479114
0.047982786 0.0007891515 -0.023488054 0.0012312707 -0.09323537 0.014679577 0.07462518 0.048785422
0.036700036 -0.0037269376 0.010561482 0.13169977 0.08467789 0.13559857 0.033030055 -0.1005725
-0.09871507 -0.070471175 0.091121234 -0.0068687657 0.054407734 0.0724329 0.051086262 0.06276897
0.037819963 0.01894898 0.1356773 0.08081345 0.024073012 -0.016562516 -0.048613302 -0.0310458
-0.06456051 -0.020236555 0.044175114 0.027404558 0.04689552 0.0070848446 0.07598636 0.050395947
0.104674116 0.19329664 0.054497786 0.06823545 0.07726261 -0.04387033 0.051777825 -0.014812813
-0.047937352 -0.0021888756 0.014927489 0.0002597831 0.024540748 0.07179962 0.04363556 0.054599404
0.06349904 -0.00897237 -0.048361324 -0.053797744 -0.07379434 0.02335657 -0.0044227955 0.07987905
-0.002943629 -0.18380027 -0.11725991 0.0307981 0.041278478 -0.037099183 -0.07179169 0.03466092
-0.0003160354 0.07421887 0.086243525 0.13831021 0.024012217 -0.0847135 0.003827835 0.01056636
0.054745495 0.011012576 0.014746879 0.005840174 0.01873976 -0.038400866 -0.14457299 -0.14740857
-0.12742877 0.062166017 0.06416222 0.023464974 -0.020394985 -0.040852655 0.13244712 0.052210182
0.08654979 0.056207992 0.015799476 0.023578398 0.09977086 -0.009168364 0.14190833 0.08779822
-0.029584514 -0.0586916 0.04530481 0.026098924 0.026907103 0.02649424 0.0062592714 -0.00072820816
-0.041047685 -0.13577592 -0.31155306 -0.14935519 0.060052283 0.08672439 0.0040799486 0.0015727662
0.0020914332 0.09278573 0.08949806 0.04102551 0.22024757 0.09330462 -0.00073191634 0.11654134
0.1635654 0.13081466 0.1808022 0.10665386 -0.14988436 -0.10464221 0.013896044 0.018729523
0.060787253 0.06999022 0.06772129 -0.005284357 0.0011436779 -0.10534955 -0.14157337 0.10028415
0.11728108 0.15433036 0.059617233 0.06906495 -0.020211244 -0.16382957 0.08102659 0.13553563
0.12730649 0.23968329 0.026121344 0.111407265 0.13402934 0.07561041 0.2269671 0.07550531
-0.18430184 -0.08959437 0.059395418 0.010243686 0.054193076 0.0066982335 0.021958826 0.0045015546

fc1.bias f4 [128]
00000000: 55c1 19bd 0919 fb3c df04 d8bc fb8b 0e3b
00000010: 1a77 a1bb 9b91 15bd e341 333d d84c 113c
00000020: 3d07 543c 9460 ccbc 4d0d 603c 3874 903c
00000030: 4968 aa3c 793a fabc d759 533c bc5f 36bd
00000040: 3bfb a43a f333 87bd f5fa 753c 9098 52bc
00000050: 5f5b a0bc 6bfa 1bb9 8ad6 10bd 9cdf c5bc
00000060: a336 23bd f2f3 cf3b f5c2 71bc 2bda 933c
00000070: b2e0 d43c 6f24 64bd 3008 953c 4499 97bd
00000080: 3f95 41bb 4255 833c 7580 8ebc 3af9 cc3c
00000090: 085f f9bc 0ec2 30bd e609 73bd f70b ba3c
000000a0: 9e57 a1bc 6af3 843c 34ec 983c 43fe 563c
000000b0: 2c66 3abd 351e d13b 064c 0cbd 2ece 5b3c
000000c0: b5d1 b1bc d861 f43c 662c d7bc 2599 35bd
000000d0: 66e1 69bd 97e8 1fbc b25b 94bc f854 c1bc
000000e0: 6c91 86bd 7efa ad3a 8d2a 393c 6460 6bbc
000000f0: 5cdb 52bd 6220 d6bc 5ec2 30bc 9d5c 273c
00000100: 7317 7ebd cf81 8fbb ec9c 1ebc e7bf 15bc
00000110: 7d14 ebbc 5a3a bcba adf7 8ebc e5c5 03bd
00000120: 57fd cdbd 8d35 3f3b 85fc c7bc 9be0 3cbc
00000130: ac78 93bc 7672 b9bc f55d c23b 326a cb3c
00000140: 1794 7fbc 3ec7 13bd 24ad c2bc e7d2 f4bc
00000150: 54f4 253d 77aa 3a3c d1c1 413c f3d2 19bd
00000160: 9fa7 2bbd 67e4 b33c a296 38bd 1ad2 04bb
00000170: baa2 0ebd 9be0 bb3c 6011 01bc 3e6c 233d
00000180: 7835 a9bc eaee 80bc 0168 19bd af18 35bb
00000190: 0f61 95bd 10b9 1f3c 3ed7 5ebd 3548 eb3b
000001a0: 3fb6 ffbc c3e8 19bc ba2d 0bbd 4d6a 2ebc
000001b0: 2957 96bd 3b4f 6dbc f0bd b4bc 3b13 bfbc
000001c0: 5ff6 373c 115d 6dbd 40cc 083c 402b 1d3c
000001d0: 05ec 193c c5aa debc 0a38 ca38 99d2 93bc
000001e0: f901 debc cad5 c63c 0b8a 95bb aefb 13bd
000001f0: 3ee4 66bd c4ec 4dbc 7c83 65bd cbdc 5c3d
-0.03753789 0.030651586 -0.02636951 0.0021750915 -0.004927528 -0.036515813 0.043764006 0.008868419
0.012941179 -0.024948396 0.013675046 0.017633542 0.02080168 -0.03054546 0.012899837 -0.044524893
0.001258708 -0.066017054 0.015013446 -0.012853757 -0.01957482 -0.0001487524 -0.03536085 -0.024154477
-0.039847028 0.006346219 -0.014755954 0.018048367 0.02598605 -0.05569881 0.01819238 -0.0740228
-0.002953842 0.016031865 -0.017395237 0.025021184 -0.030440822 -0.043153815 -0.05933561 0.022710783
-0.0196951 0.01622935 0.018667318 0.013122144 -0.045507595 0.006381775 -0.03425219 0.013415856
-0.021706441 0.029831812 -0.026266288 -0.044335503 -0.057099722 -0.009760044 -0.01811013 -0.023600087
-0.06570706 0.0013273505 0.011301649 -0.014366243 -0.05147873 -0.026138488 -0.010788528 0.010214952
-0.06203408 -0.004379488 -0.009680968 -0.009139991 -0.028696293 -0.0014360652 -0.017452085 -0.03217115
-0.10058086 0.0029176206 -0.024412403 -0.0115281595 -0.018001877 -0.022637587 0.0059316107 0.024830911
-0.015599272 -0.036078684 -0.0237642 -0.029885722 0.040516213 0.011393181 0.011825995 -0.037554692
-0.041907903 0.021959497 -0.04506553 -0.0020266832 -0.034823157 0.022934249 -0.007877678 0.03989815
-0.020655379 -0.015738923 -0.0374527 -0.002763312 -0.07293903 0.009748712 -0.05440449 0.0071802386
-0.031214831 -0.009393874 -0.033979155 -0.010645461 -0.07340843 -0.014484222 -0.022063226 -0.0233246
0.011228173 -0.057950083 0.008349478 0.009592831 0.00939465 -0.027181039 9.642549e-05 -0.018044757
-0.02710055 0.024271864 -0.004563575 -0.036128692 -0.056370012 -0.012568656 -0.056033596 0.053921502

fc2.weight f4 [64, 128]
00000000: 1b64 02be 1c3f 7bbd fafc d03d 74cf 273d
00000010: 4081 6cbd 55e2 a5bd 5ec7 c6be 9ef5 5b3d
00000020: bcf5 e93c d8fa af3c fb93 ab3d e00c de3d
00000030: 6253 443d dfe3 c03b 2c2e 1abe ba7a f03b
00000040: 83e6 babd 05b2 08be dfc8 96bd f79c f5bd
00000050: 30a5 cdbd 324e 7d3d 8a71 96bd a74f 43be
00000060: c94e 093e a978 08be a256 aa3c 2411 28bd
00000070: a5b5 fdbc 4e0b dc3d 4902 c4bc 5e0a a23e
00000080: 16f3 953d e863 2dbd 52f2 743d 3157 203e
00000090: 32ed 1bbe 83f7 f0bd dff9 cf3d bbd4 4f3d
000000a0: 7698 9e3d 0a6c 203d c9c0 0a3e 9ff6 7d3d
000000b0: a93f 06bc d1ed 3abd 9846 d43c 3ad1 183e
000000c0: 52ba d7bc 9c9b 15be 2f57 4fbe 286b a0bd
000000d0: d1fd 223e f41e 123f 3613 a03d bbd0 d2bd
000000e0: ea7d 733d d68d 853b 7f0f 2b3d bd20 6fbd
000000f0: 85a0 6c3e 9c60 213e 33af 8f3d ef50 593d
00000100: c58b 08be 5df1 c8bd 15b6 973e afe7 163d
00000110: 177d cbbd 6afa 94be f832 01be 8052 7d3d
00000120: 88ca e73c c910 643e 5e78 ca3d f530 0a3e
00000130: 1f8b 28bc 495e aa3b 2465 2f3d 538a 7dbe
00000140: e5f1 2abc 82ce 0abd 94a9 d6bb 7f2f 08bf
00000150: 740d 46be 3eb9 4b3e d2ca 9d3c d582 32be
00000160: 3b2c d2bc abe6 d7bd bc3b ab3d bbeb 673e
00000170: f387 c03e ddd4 92be d087 5d3e 39f5 46bd
00000180: 7c13 113e 241a 2cbd 04f6 0f3d e16e f6bb
00000190: 67e6 ad3d 4b08 eabd a823 dbbd 4c4e 2ebd
000001a0: eff6 5abe 8f90 4cbd b5e4 ddbc 8d2c c2bd
000001b0: 0845 d5bd 3e87 6abd 2f62 a1bd 23ce e63d
000001c0: 0a5d ccbd 90d3 b6bd 9861 d7bd 2ea9 01bd
000001d0: ac16 b53d b734 3dbd 51be 283e 7049 8d3c
000001e0: 6a36 15be 9cdf 9f3d 9827 2c3d f2b1 c1bd
000001f0: 3951 8dbe 9e61 ba3d 9844 15be 8660 263e
00000200: 4c40 363e 60b0 803e fa1d 59bc cfe5 bfbb
00000210: a6cd d03d 1f2c 0b3e 300f 35bd 51d9 943c
00000220: 3b2e 48be 80db 0bbd b091 c3bd c7b4 7c3d
00000230: f2d8 593e 255f 453e d890 9d3d f255 f33d
00000240: fa4a 06bd 0b2f 973d 7688 673e 9619 c2bd
00000250: fd54 b83d aa33 4abe 751a ab3d 0a5c c33d
00000260: ce80 03bd d08f 043e 5a8f afbd 24ca a73c
00000270: 288c 813d 8e77 04be 4ede c73d a476 72be
00000280: d045 0b3e 53c9 82bd cd27 fcbd 78b2 363d
00000290: 8a8c b43d 4e8e d5bd f197 223e 910c b73c
000002a0: 4956 f3bd 53fd 59be fa3a 7bbc 1c20 eabd
000002b0: 58a4 b03d f8ff 55be fc7b aa3c 27e4 6b3d
000002c0: 10bc ec3c 3de3 05be 1012 963d 21f6 6dbd
000002d0: b371 973c 7194 7abe 2ddb 573e d72e fabc
000002e0: f318 d43c 9b7e 3dbd cc05 353c 79c0 993d
000002f0: a863 4d3d 89b1 f7bd 4e77 cc3d 5f87 e0bc
00000300: 95bb 213e dd7e 143c be8e b23b 0600 483d
00000310: 3671 e83d b6f7 1a3e 280e 92be 0e9c e9bb
00000320: 1c23 f73a d3f2 26bc 0bf2 41bd 19c1 683c
00000330: cc59 ef3b 3f47 56be 2f00 8bbe d2df 0f3e
00000340: cde3 2ebe c364 e93d ec2c 953d 70e4 573e
00000350: 6636 90be c1dc 0abe 218b 683e 34da 0a3e
00000360: 9474 5d3e fef1 3b3e 1f0a 333e 7061 733e
00000370: a836 a03d bc68 823d c0a5 cbbc d9bc d0bc
00000380: 824f fc3b 1a2b 823e 79a0 1a3e 6bb0 94be
00000390: 3ff0 86be 0fd1 9cbe 7e4c aabd 1cb7 6d3d
000003a0: f8cf 6abe 110a 163e 67d9 75bc 2fd8 25bd
000003b0: fc5d 293e a774 1a3c 826e 20bd 460d 93bd
000003c0: a255 82bd d7fa 153e 9307 503e 7d17 62be
000003d0: d6e2 92bd 1ca5 aabb 39e3 ac3e 3144 8e3d
000003e0: c39a 3abd 3044 29be 01bd 46bd 71cf 803d
000003f0: fc73 4f3e 542f 8c3c 67ac 09be f63c 0bbc
-0.127335 -0.061339483 0.102045015 0.040969327 -0.05774045 -0.0809981 -0.3882398 0.053701036
0.028559558 0.021481916 0.083778344 0.108422995 0.047931083 0.0058865394 -0.15056676 0.007338849
-0.09125998 -0.13349159 -0.07362532 -0.11992829 -0.10041273 0.06184215 -0.073458746 -0.19073354
0.1340896 -0.13327278 0.020793263 -0.04103197 -0.030970404 0.10744344 -0.02392687 0.31648535
0.073217556 -0.042331606 0.059801407 0.15658261 -0.15227202 -0.11765959 0.10155081 0.050739985
0.07743923 0.039165534 0.13550104 0.062002774 -0.008193889 -0.045636956 0.025912568 0.14923564
-0.026333962 -0.14610142 -0.20248102 -0.078329384 0.15917136 0.5707848 0.07816164 -0.102937184
0.059446253 0.004075746 0.041762825 -0.05838083 0.23108108 0.1575951 0.070158385 0.0530557
-0.13334568 -0.098116614 0.29631105 0.036842044 -0.09935968 -0.290973 -0.126171 0.061846256
0.028294817 0.22272028 0.098862395 0.13495238 -0.010287075 0.005199228 0.042821065 -0.24759798
-0.010433649 -0.033888347 -0.006550977 -0.53197473 -0.1934107 0.19894883 0.019261751 -0.17432721
-0.025655856 -0.10542043 0.08361003 0.22648518 0.3760372 -0.28678027 0.2163384 -0.048573706
0.14167589 -0.042017117 0.03514673 -0.007520542 0.084912114 -0.11427363 -0.1070016 -0.04255514
-0.2138326 -0.04994255 -0.027086595 -0.09481154 -0.10413557 -0.057257883 -0.07880055 0.11269786
-0.09978683 -0.08927071 -0.105166614 -0.031655483 0.08842215 -0.04619285 0.1647885 0.017246932
-0.14571539 0.07806322 0.042029947 -0.094577685 -0.2760103 0.0910065 -0.14576948 0.16247758
0.17797965 0.25134563 -0.013251776 -0.0058562527 0.10195474 0.1359105 -0.044203937 0.01817003
-0.19548886 -0.03414488 -0.09549272 0.06169584 0.21274164 0.19274576 0.076936424 0.11881627
-0.032786347 0.073820196 0.2261065 -0.094775364 0.09000585 -0.19746271 0.08354656 0.095390394
-0.03210526 0.12945485 -0.08572264 0.02048213 0.06325561 -0.12936231 0.09759198 -0.2367807
0.1360085 -0.06386056 -0.12312279 0.044603795 0.08815868 -0.10427533 0.15878274 0.02234486
-0.11881692 -0.21288042 -0.015333885 -0.114319056 0.08625096 -0.20898426 0.020811073 0.05759063
0.028898269 -0.13074966 0.07327664 -0.058096055 0.018486833 -0.24470688 0.21079703 -0.030539913
0.025890803 -0.04626332 0.011048745 0.07507414 0.050143868 -0.12094409 0.09983693 -0.0274083
0.15794213 0.00906345 0.005449145 0.048828147 0.11349718 0.15133557 -0.28526425 -0.007129199
0.0018855068 -0.01018973 -0.04734997 0.014206194 0.007304406 -0.20925616 -0.27148578 0.14050224
-0.17079087 0.11396172 0.07283959 0.21083236 -0.28166503 -0.13560773 0.22709323 0.135598
0.21626502 0.18354031 0.1748433 0.23767638 0.07822925 0.06367633 -0.02485931 -0.025480675
0.0076999078 0.2542351 0.15100278 -0.29040846 -0.26355168 -0.3062825 -0.08315371 0.058035955
-0.22930896 0.14652278 -0.015005446 -0.040489372 0.16539758 0.009427226 -0.03916789 -0.07180266
-0.063639894 0.14646469 0.2031539 -0.22079273 -0.07172172 -0.005207671 0.33767107 0.069466
-0.04555775 -0.16529918 -0.048520092 0.06289566 0.20259088 0.017112412 -0.13444673 -0.008498421

fc2.bias f4 [64]
00000000: a6f4 21be 82b6 aebd a3a5 6c3c a022 22be
00000010: 562a 8dbd 75ab 1c3d 6b28 f73d 92ca 07be
00000020: 0d82 82bc ebc7 0dbd d3c1 1bbc f9f6 7bbd
00000030: 6e1e ab3b 4646 4cbe d818 16be 34d9 1a3e
00000040: b434 a13d f1ce c4bd d537 af3d 4563 cbbd
00000050: 9816 1ebc e35c 66bd 201c 18bd 4b4c 643d
00000060: cc6e 3dbe 4c80 493e 73c1 2bbe 8e9c e53c
00000070: 9256 bebc 6cc0 f4bb 2b9c 183e 2838 f6bd
00000080: e127 32bd 2d0b b33c 4019 7f3d ade2 763d
00000090: 6309 773e 752b 89bd 89f4 fdbd c18d 92bd
000000a0: e18f bfbd c5fb 0fbd fe2c a33d c226 f9bc
000000b0: 2f50 923e 12cf f13c 2ad1 efbd 1eed 9f3d
000000c0: c7de f3bc 62cb 813d 8d54 633e bd03 2b3e
000000d0: 9f65 d3bd 5977 ee3d 9ccc 32be 1515 0dbc
000000e0: 19e3 db3d 8eaa 7f3e ade6 873e 9d31 22be
000000f0: cc4c 22be b5b0 0fbd a476 a4bc f193 1e3e
-0.15815982 -0.08530904 0.014443788 -0.15833521 -0.068928406 0.03824945 0.12068256 -0.13260868
-0.015931154 -0.034614485 -0.0095066605 -0.06151483 0.0052221334 -0.19948682 -0.14657915 0.15121919
0.078713804 -0.096097834 0.08555571 -0.099310435 -0.009648941 -0.056240927 -0.037136197 0.05573682
-0.18499297 0.19677848 -0.16773014 0.028028753 -0.02323464 -0.0074692275 0.14903323 -0.1202243
-0.043495063 0.021855915 0.06227994 0.06027477 0.24124674 -0.06697742 -0.12400157 -0.07155944
-0.093536146 -0.035152216 0.07967566 -0.030413989 0.285768 0.029517684 -0.11709817 0.078088984
-0.029769314 0.0633762 0.22200222 0.16700645 -0.10322117 0.116438575 -0.17460865 -0.008610983
0.10736675 0.24967405 0.2654318 -0.15839238 -0.15849608 -0.03508063 -0.020076104 0.15486123

fc3.weight f4 [10, 64]
00000000: 1360 24be 3b24 2c3d af3c 193e ff68 68be
00000010: 4bee 5cbe fd2b 343e c5b6 49be ba13 163d
00000020: 9e00 753d db66 64be 6e5b 4dbe 27e4 173e
00000030: f522 86be e5ee ecbe 331b e83b 931b ee3d
00000040: 63a4 9ebc cfaa cb3c 0af6 d3bd dac5 b6be
00000050: 66fc 4fbe b4bf 1dbe dfa3 753c d74e 953d
00000060: 1972 c3be 9ef2 433d 65f0 903e 31e0 093e
00000070: 7647 523d d41b 94be 6757 3dbe c4c8 313d
00000080: 7888 dabe 17a2 a43d 45d3 3f3e 7dc0 d03c
00000090: 6d62 2a3e 9577 0e3e df01 afbe 490b 183e
000000a0: 332e b7be 7aea 283e 4f77 94bd 20a3 f0bd
000000b0: 038a 06be 8f77 f93d 2e95 c03d 0419 88bb
000000c0: 5754 99bc 3a30 02be 0642 5cbe abba 64be
000000d0: cbfc 8d3e 0458 98be bea3 5f3e d2aa 9bbe
000000e0: 555c 203e f0ed 113e a17a 7f3d 0e83 8dbe
000000f0: 7d84 b2bd 342b 73bd 4e18 3bbe 9d26 2f3d
00000100: 98a3 2d3e c682 f4bd 8dab b2be e7be 80be
00000110: f2a7 ec3d 8635 71bb 3c21 32be 64cd 28be
00000120: 8c27 79be 1a90 4bbd 9cbd 29be 580d c5be
00000130: 7d35 6f3d b890 af3d a042 80be d302 27be
00000140: 9941 da3c 3c65 553e e3bb bbbe cf95 1f3e
00000150: 4eee d03d 63f6 483e ae82 093e c833 a33d
00000160: df11 683e c903 573c 48ea 1f3e 5a79 2dbc
00000170: 0f09 403e a334 8dbd fecd 07be 0a6f 053e
00000180: 4c6e 453d 620f 7bbe e846 a13d 446e 7dbe
00000190: e4fc aebc dcc9 ae3e 8f24 f1be 236e 92be
000001a0: 0009 7ebe eb4d 46be 37a8 683e 25f3 403e
000001b0: 2861 9ebd 5a09 9abe f1cb 683d dab4 52be
000001c0: 4b68 48bd bcf9 8b3d 5364 1abd fb0b bf3d
000001d0: 7b75 9e3e 6e0f 09be cf58 ab3b fae9 143d
000001e0: c80b 11be a553 72be c188 57be 682e 3dbd
000001f0: 7c08 c9be e291 03be 8756 493e 5d22 f83d
00000200: 08a4 08be 9f10 a73d cdc1 8fbe 34c3 103d
00000210: 88d3 7ebd 67a5 91be 4edd e6bd 6cd8 f63c
00000220: 7db1 313e 7f5c 15be 8e15 773e ca37 2cbd
00000230: 7eb8 4fbe ccf5 7abc e74a b33d a381 8bbe
00000240: 3eae 78be 04d6 9e3d 978d d9be 7cf5 3a3d
00000250: b422 74be cda2 07bf d26c 3f3b 7652 9cbb
00000260: f179 893e 8b0b a23b d849 c23d 690f 4dbe
00000270: 91e3 e83a 502f d13d b033 85be 4e04 123e
00000280: 4454 d83d f931 bfbd 471b a43d 85ed a03d
00000290: 5c8b 80be 3b7b b8bd 6149 b7be c039 983b
000002a0: 32ff e8bd a6ea 42bd d7dd 9cbe f13e 173e
000002b0: 48bb 033e 474d 963d 88ac 123e 4949 6b3e
000002c0: b511 9d3d d225 d23d ddde 61be 2cf2 2bbd
000002d0: c187 a4be 0935 ad3c 53aa a03e 4904 f8bd
000002e0: 159f 003e 5472 013e d8ae 3b3e 4d74 b03d
000002f0: 9e23 d63d 6640 813e 6fb1 003e d7f8 473b
00000300: 759d 223e a466 9abe 5f2c a2be 7d08 7a3d
00000310: 4c4a 0abd 77ea c23c a77b 883d 1452 10be
00000320: dda9 8abe 688b 93be 19be e43c cda8 24bc
00000330: 9e68 08be 6fc6 943e 303a ee3d a91e 45be
00000340: 6703 4a3e df5a efbd ffaa 393c 1a0e 6c3d
00000350: d42d 45be d9ac c43c 5aa5 5f3e f85d 023e
00000360: a9a9 84bd 49f6 5abe 3b1c e9bd ebd8 f43d
00000370: 4cab 23bd b4f7 84be fb3e 3c3e ec0a 8b3d
00000380: 724a 1fbe e1e7 2b3e 1f1f 46be e40e c93d
00000390: d179 52be e5d7 b4be 2100 93bd c313 843e
000003a0: 77b0 b03d c28a 92bd e424 e9be 79b2 4dbe
000003b0: a2e3 5a3e 60bd 9b3b 1025 323e 80d0 533d
000003c0: 0e86 7a3c e7b6 813d ca5f 5ebe c723 42be
000003d0: 8529 37be a476 1b3e e276 ffbd 9e97 203d
000003e0: ab59 27be 1b40 36be 0a55 633d 9134 08be
000003f0: 0d06 e0bd 9b69 4bbd 69a1 ddbc 25fe bf3b
-0.16052274 0.04202674 0.14964555 -0.22696303 -0.21575277 0.17594905 -0.19698627 0.036639906
0.05981504 -0.22304861 -0.20054409 0.14833127 -0.26198545 -0.46276012 0.0070833205 0.11626353
-0.019365495 0.024861721 -0.103496626 -0.35697824 -0.20311126 -0.1540516 0.014992683 0.07290428
-0.38172987 0.0478388 0.28308406 0.13464428 0.05133768 -0.2892748 -0.18490373 0.043404356
-0.42682242 0.08038729 0.18732937 0.02548241 0.16639109 0.13912804 -0.34181115 0.14848055
-0.35777435 0.16495696 -0.07249319 -0.117498636 -0.13138585 0.12181007 0.09403454 -0.0041533727
-0.018716974 -0.1271371 -0.21509561 -0.22336833 0.27731928 -0.2975465 0.21839806 -0.30403763
0.15660222 0.14250922 0.062372807 -0.2763905 -0.087166764 -0.059367374 -0.1827099 0.042761434
0.16956937 -0.119390056 -0.34896508 -0.25145647 0.115554705 -0.0036805584 -0.1739549 -0.164846
-0.24331492 -0.049697973 -0.16576236 -0.38486743 0.05840062 0.08572525 -0.2505083 -0.16309671
0.026642608 0.20839399 -0.36666784 0.15584491 0.10201703 0.19625239 0.13428757 0.07968861
0.22663067 0.013123461 0.15616715 -0.0105880145 0.18753456 -0.06894805 -0.13262174 0.1303064
0.04820089 -0.24517587 0.078748524 -0.24749094 -0.021360822 0.3413838 -0.47098204 -0.28599653
-0.2480812 -0.19365661 0.22720419 0.18842752 -0.07733375 -0.3008526 0.05683512 -0.20576802
-0.048927587 0.068347424 -0.037693333 0.09328457 0.30949005 -0.13384792 0.0052290927 0.03635595
-0.1416465 -0.2366472 -0.21048261 -0.046186835 -0.39264286 -0.12848619 0.19661914 0.12115929
-0.13343823 0.08157467 -0.28077546 0.03534241 -0.06221345 -0.28446504 -0.11272679 0.030132495
0.17352863 -0.14586066 0.24129316 -0.042045392 -0.20285222 -0.015317392 0.08754521 -0.27247342
-0.24285218 0.07755664 -0.42490837 0.04564427 -0.23841363 -0.5298279 0.002920915 -0.0047705723
0.26850846 0.0049452237 0.09486741 -0.2002541 0.0017768015 0.10214102 -0.26015997 0.14259455
0.105629474 -0.093357034 0.08013015 0.07857803 -0.25106323 -0.09007879 -0.3579817 0.004645556
-0.113768 -0.04758706 -0.30638 0.14770104 0.12864411 0.07338958 0.14323628 0.22977175
0.07669393 0.1026112 -0.22057672 -0.041979 -0.32134822 0.021143453 0.31379947 -0.12110192
0.12560685 0.12641269 0.18328416 0.086159326 0.10456012 0.25244445 0.12567686 0.003051331
0.15880378 -0.30156434 -0.31674477 0.06104325 -0.03376226 0.023793442 0.0666421 -0.1409381
-0.2708272 -0.28817296 0.027922677 -0.010050011 -0.13321158 0.29057643 0.11632192 -0.19249977
0.1972786 -0.11687254 0.011332273 0.057630636 -0.19255763 0.024008201 0.2184042 0.12731159
-0.064776726 -0.21383013 -0.11382338 0.11955436 -0.039958283 -0.25970232 0.183834 0.067891926
-0.15555742 0.16787674 -0.1934781 0.09817293 -0.20554282 -0.35320964 -0.07177759 0.25796327
0.08627408 -0.07155372 -0.45535958 -0.20087613 0.21375898 0.0047528 0.1739695 0.051712513
0.01529075 0.06333714 -0.21716228 -0.1895896 -0.17886932 0.15181977 -0.12473847 0.039207093
-0.163428 -0.17797892 0.05550102 -0.13301302 -0.10938654 -0.04966126 -0.027054505 0.005859154

fc3.bias f4 [10]
00000000: d8c4 1b3d ed98 29be 8f55 233b 2229 0dbd
00000010: a159 183e 58f7 0cbe bbd4 01be b8f3 ebbd
00000020: 25cc 9f3e 5368 c53d
0.03802952 -0.16562243 0.0024922823 -0.034463055 0.1487794 -0.13766229 -0.12678806 -0.11521095
0.31210437 0.09639039
